models/cnn.pth (torch, 638032 bytes, 8 tensors)

layers.0.weight f4 [32, 3, 3, 3]
000000 e8 27 2f bd 9e 09 0a 3e 6d e2 22 3e d4 2a 3e 3e
       -0.042762667 0.13480231 0.15906687 0.18571025
000010 69 62 2c be 78 6a ca 3d bb 6d 31 3d 92 c5 f1 3d
       -0.16834415 0.098835886 0.043317538 0.11805262
000020 57 c9 15 be 6f ca 36 be 75 88 4c 3c 8a 1b e6 3d
       -0.14627586 -0.1785066 0.012483706 0.112357214
000030 c9 82 f5 bc 8c e7 0e 3e 86 27 af bc df 6a a2 3d
       -0.02996959 0.13955516 -0.02138115 0.0793054
000040 e9 2d 9a bd 41 09 ba bd 9b 03 09 be 8b 0a f3 3d
       -0.07528288 -0.09083796 -0.13380282 0.11867245
000050 74 e6 48 bd 15 3b 16 be 16 d4 10 3e ae 6d d1 bd
       -0.049047902 -0.14670976 0.14143404 -0.10225998
000060 63 7b d7 bd 96 4f 10 3e a0 c0 ff 3d 8b b5 3a 3e
       -0.10521581 0.1409286 0.12487912 0.18233316
000070 17 b0 53 3e 29 b6 0a be 5c 93 e1 3c 61 ae 0d 3e
       0.20672642 -0.13546051 0.027536087 0.13836052
000080 44 51 eb 3d fe cc 0d be c2 34 f7 3d 23 c8 84 3b
       0.114901096 -0.1384773 0.1207061 0.0040521785
000090 35 a8 26 be bb 59 76 3d 3d 19 e7 bd 9d 91 29 be
       -0.16275103 0.060144167 -0.11284111 -0.16559453
0000a0 b9 8d 5d ba e8 25 19 be 31 f0 1c 3e 2d af 0f 3e
       -0.0008451599 -0.14955866 0.15326001 0.14031668
0000b0 df f2 29 bd fb ac d4 bd 0d d5 28 be 9f 6c 04 3e
       -0.041491386 -0.10384556 -0.16487522 0.1293206
0000c0 95 3b fc bd 30 43 21 be 5f 27 5a 3c 26 95 0f be
       -0.12316052 -0.15748286 0.013315051 -0.1402174
0000d0 28 5f de bd ee 12 89 bd 01 1d fb bd 30 2b 06 bd
       -0.10857993 -0.06693064 -0.122613914 -0.03275603
0000e0 90 74 ec bb d1 8f f8 bc 5d 69 40 3e 7e 0b 3d 3e
       -0.007216044 -0.030342015 0.18790193 0.18461415
0000f0 58 f6 88 3d ac 34 5a 3d 39 93 b7 bd dd 99 c2 bc
       0.06687611 0.053272888 -0.08963627 -0.023755008
000100 17 d8 8e bd 9e 84 04 bc 5c 28 16 bd 25 b6 43 be
       -0.069748096 -0.008088259 -0.036659583 -0.19112451
000110 e8 86 07 3e 9d 4a 21 bd e5 f9 47 3d 73 f0 0e bd
       0.13235056 -0.039377797 0.048822302 -0.03489728
000120 fc 35 01 3e 91 62 23 be e9 f1 1c be a8 da 21 bd
       0.1261825 -0.15955569 -0.15326656 -0.039515167
000130 31 71 1a 3e b3 b8 9a bd 82 94 fa 3d 1a e2 7c bc
       0.15082242 -0.0755476 0.12235357 -0.015434766
000140 19 10 16 be 27 a9 0a be b2 33 34 be ec 7c 11 3d
       -0.14654578 -0.13541089 -0.17597845 0.035519525
000150 42 e9 14 3e 6f 35 1a be 88 63 ec 3d 81 8e c0 3d
       0.14542106 -0.15059446 0.115424216 0.094021805
000160 07 eb 3e 3e de 7f 8b 3c 3b 08 e7 3c 93 bd 3c be
       0.18644343 0.017028745 0.028202167 -0.18431692
000170 3c 7f f9 bd 4b 91 89 3d a7 52 83 3d c0 12 38 be
       -0.12182471 0.067171656 0.06412249 -0.17975903
000180 dd 60 52 bd b5 3f 32 bb 69 73 2a 3d 80 02 14 bd
       -0.051361907 -0.0027198617 0.04161397 -0.036135197
000190 02 35 2e 3e 46 5a 2e 3e 2e 18 4b 3d 9b 2e ca bd
       0.17012408 0.17026624 0.049583606 -0.098721705
0001a0 34 5c 23 3e 85 16 28 be 07 53 41 bd 25 2b c0 3d
       0.15953141 -0.1641484 -0.04719832 0.09383229
0001b0 0f 99 b2 bd 21 94 fc bd fd 55 12 3e 2d 25 2d 3d
       -0.087206 -0.12332941 0.14290614 0.04227178
0001c0 cc 2b 3c 3d bd 70 f6 bd bd 1c a0 bc 37 16 c3 bd
       0.045940205 -0.12033222 -0.019544953 -0.095257215
0001d0 b4 fe 14 be 5b a3 1a 3e 34 9d b0 3d 64 3d f4 bd
       -0.14550287 0.15101378 0.08623734 -0.11925772
0001e0 f4 53 42 3e d7 bd 45 3e 0e 45 0c 3d e9 fb 2d 3e
       0.18977338 0.193107 0.034245543 0.16990627
0001f0 49 53 0e be 4a af c1 bc 34 d3 e8 bd 56 b5 3b be
       -0.13898958 -0.023643155 -0.11368409 -0.18330893
000200 7e c6 0a 3e 82 67 6d 3d 91 ec c3 3d 98 ae a6 bd
       0.13552281 0.05796004 0.09566606 -0.0813877
000210 15 e3 0d 3e a9 60 4e be f4 5f 0a be 43 3d 31 bd
       0.13856156 -0.2015406 -0.13513166 -0.043271314
000220 60 c1 0a 3e d3 94 47 bd 63 52 92 3d 02 51 15 3e
       0.13550329 -0.048725914 0.0714462 0.14581683
000230 f8 89 79 3c 72 23 1d 3e f8 05 ce bc 3c cb 4e 3e
       0.015230648 0.15345553 -0.02514933 0.20194715
000240 4d a0 0f 3e 41 80 95 bd b7 56 98 bd 0b 28 04 be
       0.14025994 -0.07299853 -0.074384145 -0.129059
000250 c0 7e 21 bd f5 8c 18 bc 33 e0 f4 bb 11 7d 9b 3c
       -0.03942752 -0.0093109505 -0.0074730157 0.018980535
000260 98 72 0b be 7f fe 4a 3c d9 09 d2 3c 2f 5b 88 3d
       -0.13617933 0.012389778 0.025639461 0.06658017
000270 8e 2c d5 bd 06 cd ef 3c c2 af e7 bd c1 72 cb 3b
       -0.10408889 0.029272567 -0.1131282 0.006208748
000280 d6 5e 26 be 3e d4 0b be f1 ff 69 bd be 44 50 bd
       -0.16247115 -0.13655183 -0.05712885 -0.050846808
000290 4e b1 b8 3d 42 08 59 3e 26 0f b3 bd e8 cd 00 3d
       0.09018193 0.21194556 -0.08743124 0.031446368
0002a0 0c c2 ab 3d 88 62 5b 3e 50 e2 1d 3e 34 df 0b be
       0.08386621 0.21424305 0.15418363 -0.13659364
0002b0 8b b0 5e 3c f9 0d 4a be 34 e7 2d 3d 46 b0 97 bd
       0.013591896 -0.19731893 0.04245682 -0.07406668
0002c0 3a 61 c8 bc 6a 7e 45 3d d6 90 3e be 6d fe db bd
       -0.024460424 0.04821626 -0.18609938 -0.10741887
0002d0 b7 45 21 be 9a 85 a7 bd 2c 94 d8 bd 89 88 c0 bd
       -0.1574925 -0.08179779 -0.105751365 -0.09401042
0002e0 97 f3 d2 3d 6e 10 26 bd 5f ed 4a 3e f2 ea b5 3d
       0.10300367 -0.040543012 0.19817112 0.08882703
0002f0 33 61 d2 bd c6 86 b0 3d 73 93 39 be a9 4d 11 be
       -0.102724455 0.08619456 -0.18122654 -0.14189781
000300 d5 36 32 3c bf 49 31 be 8e 3b 15 3d 64 02 3f 3e
       0.010877331 -0.17313288 0.03643375 0.18653256
000310 00 47 28 bc 53 5d 8f bd c6 38 bf bd 3a df c2 3c
       -0.010270834 -0.07000222 -0.093370005 0.023788083
000320 a8 37 90 3d a7 2e d9 3d b8 76 a6 3b 2e bc bf bc
       0.070418656 0.10604601 0.0050800703 -0.02340516
000330 9b 02 e9 3d 59 1a 9d bd f3 54 20 be fa 27 10 3e
       0.1137745 -0.07671041 -0.15657406 0.1407775
000340 ad 52 19 be 57 79 c5 3c 3d 16 bc bd a3 b2 56 3d
       -0.14972945 0.02410571 -0.09183929 0.052416455
000350 39 ad 1d 3d 7e 60 09 3e bf 5d bc 3d 91 db b5 bd
       0.038495276 0.13415715 0.09197568 -0.088797696
000360 6d e4 d0 bb d1 17 44 3d c8 44 2b 3e 2e 1c 61 3d
       -0.0063748867 0.047874276 0.16725457 0.054958515
000370 3a 12 37 3e 73 7e 08 bd 0e 89 af bd 0c b1 88 3d
       0.17878047 -0.033323716 -0.08571063 0.06674394
000380 10 8d 72 3d b3 f8 fa 3d f1 9a 44 bd 56 df 58 3d
       0.05921656 0.12254467 -0.047999326 0.052947365
000390 c5 95 5d 3d 2b 27 bc bd 7c 7c c0 3d 2b d5 88 bc
       0.05409791 -0.09187158 0.093987435 -0.016703209
0003a0 f2 e1 37 be be 25 8e bc af 5c c1 3d 3d 63 1e be
       -0.17957285 -0.017351981 0.09441506 -0.15467544
0003b0 d4 59 dd 3a 1a 3c 3d be f1 83 2f 3e a1 09 c6 3d
       0.0016887733 -0.18479958 0.17140175 0.09669805
0003c0 e7 b8 c1 3d ed 73 d9 bc 51 2b 16 3e a9 da 9f bd
       0.094590954 -0.026544536 0.14664961 -0.07805378
0003d0 00 c8 04 bd 47 0b c8 3c 70 b8 3c bd b3 2a 98 bd
       -0.032417297 0.02441944 -0.04607433 -0.07430019
0003e0 a0 f7 b7 3c e2 af ff 3d 3f c3 48 bc b1 de 0d bd
       0.022456944 0.12484719 -0.012253582 -0.034636203
0003f0 9c e0 0a be cf ce 8a 3d 54 86 6b bd e6 61 84 3d
       -0.13562244 0.06777727 -0.057501152 0.06463985

layers.0.bias f4 [32]
000000 2e 81 02 3e 6c 49 1b be 10 ac 42 bd 2d fd e3 3d
       0.1274459 -0.15164727 -0.047527373 0.11132274
000010 6e f4 4f 3d 88 25 07 3d 80 a4 19 bd ac 71 e2 bd
       0.050770216 0.032994777 -0.037510395 -0.110568374
000020 68 32 a2 bd ae f1 c4 3c 75 b9 62 3b f2 89 18 3c
       -0.079197705 0.024041023 0.0034595404 0.0093102325
000030 20 94 03 bc 70 76 35 3e 0b 2d 29 3e 1b d4 8d 3d
       -0.008030921 0.17720962 0.16521089 0.069252215
000040 d9 10 1f be 7f 45 83 3d 09 72 27 3e f6 62 91 3d
       -0.1553377 0.0640974 0.16352095 0.070989534
000050 55 15 05 be 95 2a 9d 3d 69 9b 89 bd c8 85 3e bc
       -0.12996419 0.076741375 -0.06719095 -0.011628576
000060 b5 78 e8 3d 0c 2d 1e bd bd b6 84 bc f9 2c f1 bd
       0.11351148 -0.03861718 -0.016200418 -0.11776156
000070 b9 08 be bd 5d 3f 96 3c 83 47 d3 3d d3 00 6d 3c
       -0.092790075 0.01834076 0.10316374 0.014465529

layers.3.weight f4 [64, 32, 3, 3]
000000 74 c7 4c bd f8 ff 03 3d ae dc 60 3b 29 27 8b bd
       -0.0499949 0.032226533 0.0034311223 -0.067945786
000010 09 76 0d bd 7e f0 19 bd d4 9d 97 bc 59 6c 9c 3c
       -0.034536395 -0.037582867 -0.018507876 0.019094633
000020 aa e6 ae 3c 92 e6 bc 3c f3 b8 be bb 1a cd b8 bc
       0.021350224 0.023059163 -0.0058203875 -0.022558738
000030 50 12 41 bd ec 66 52 bd 44 a3 52 bc 15 ae 53 bd
       -0.047136605 -0.051367685 -0.012856308 -0.05167969
000040 17 54 45 3d 4f f7 ab bc 42 52 9e bc 01 78 d5 3c
       0.048175897 -0.02099195 -0.019326333 0.026058199
000050 39 6a 03 bd 8c 39 c2 bc 29 41 18 3d e1 9c b5 3c
       -0.032083724 -0.023709081 0.037171517 0.022169532
000060 81 7a 43 3d 47 f9 13 3d 0d 0f 46 3d 84 8d e6 3b
       0.04772425 0.0361264 0.048354197 0.007035913
000070 1f 3a 1e 3d 94 23 77 bd 49 a0 65 bd 73 f5 5b bd
       0.038629647 -0.060336664 -0.056061063 -0.053700875
000080 f0 dd 5b bc 9b 6f bf 3c 62 eb fa bb 7d 1e 33 bd
       -0.013419613 0.023368647 -0.0076574543 -0.043730248
000090 9e e1 a4 bb 01 d5 0a 3c 2e ca c9 3c de d5 25 3d
       -0.0050317785 0.008473636 0.02463254 0.040487163
0000a0 4c 76 8d bd 26 52 8c 3c 5f be 0f 3d 7a 15 12 bd
       -0.06907329 0.017129015 0.03509366 -0.035665013
0000b0 81 b4 3e bd 59 22 1a bd 13 48 4d 3b e0 53 1a bd
       -0.04655886 -0.037630413 0.0031323477 -0.037677646
0000c0 e6 75 55 bd 76 1e 5b bd c1 bc 37 bd c8 5a 89 bd
       -0.05211439 -0.053495847 -0.044857744 -0.06706768
0000d0 ae 6a 2c bb 18 80 01 3d 14 da ef bc 5a 6e f1 3c
       -0.0026308703 0.0316163 -0.029278792 0.029471565
0000e0 b1 20 f8 3a e8 14 47 bd ad b7 24 3c a0 fe bd 3c
       0.0018930641 -0.048603922 0.010053557 0.023192704
0000f0 f3 45 4d bc 78 bc 54 3c 7c 81 e3 3b be e0 59 3c
       -0.012528884 0.012984388 0.006942926 0.013298212
000100 18 f8 0e bd 4a 07 8f 3a 90 91 38 bd e8 88 fb bb
       -0.03490457 0.0010912206 -0.045060694 -0.0076762326
000110 98 5e 3f bb f8 9f 54 bc 05 e9 bc 3c 3f 72 22 3d
       -0.002920067 -0.012977593 0.023060331 0.039659735
000120 02 bb de 3c 81 6b b5 bc 3b c4 83 bc 08 58 73 bc
       0.027188782 -0.022145988 -0.01608478 -0.014852531
000130 1c 32 18 3d 86 87 2a bd d2 33 79 3a 51 a7 4c bd
       0.037157163 -0.04163315 0.0009506318 -0.049964253
000140 4c c8 9a bc 20 45 d6 bc b6 9d 08 3d db 94 e1 3c
       -0.018894337 -0.026156008 0.03335353 0.0275368
000150 2f 4f 03 bc 43 04 0f bd d2 fe 1a bd 95 ef 81 bc
       -0.008014484 -0.034916174 -0.03784067 -0.015861312
000160 c9 82 83 bc 4f e1 d1 3c ce 3c 3c 3d 9f 42 b6 3c
       -0.016053574 0.02562013 0.045956425 0.022248564
000170 98 45 38 bd 88 87 15 3d 6d 4f 15 3b 6b 15 49 bd
       -0.044988245 0.036506206 0.0022782937 -0.04909269
000180 5e df 5f bd 81 e8 3d 3c 33 2c 4b bd 15 0a 04 3d
       -0.05465638 0.011591078 -0.0496027 0.032236177
000190 48 2b ac 3b e7 7e c5 3c 19 de 28 3b e4 33 7c bd
       0.005254183 0.024108363 0.0025767146 -0.061572924
0001a0 41 81 d5 3b 79 8d 03 3d da f8 ba 3c db f4 27 3d
       0.0065156524 0.03211734 0.02282374 0.041004997
0001b0 6d b2 37 3b 90 b8 63 bd cd 8c 09 bd 3c 3f 7f bb
       0.0028029934 -0.055595934 -0.033581544 -0.0038947603
0001c0 fe 35 f9 bb 39 c7 71 bd 85 1e 0b 3d ae 73 f0 3a
       -0.0076053133 -0.059027884 0.033964653 0.0018345022
0001d0 e1 28 9d bc 7b 53 5c bd a7 32 33 bd 91 35 05 bd
       -0.019184532 -0.05379055 -0.043749478 -0.032521788
0001e0 bc 1e 9f bc bd e2 1b bc 48 57 17 bc be 10 f3 3b
       -0.019423835 -0.009514508 -0.009237118 0.0074177673
0001f0 85 45 ab bc ef b3 36 bd e5 84 7e bc f0 f5 5b bd
       -0.020907173 -0.04460519 -0.015534614 -0.05370134
000200 4d bf b3 3c 20 30 c5 3c 23 59 9f 3c c2 2c 0f bd
       0.021941805 0.0240708 0.019451683 -0.034954794
000210 99 76 bf bc 88 7e b0 bc 06 b1 63 bd 4f ea e1 3c
       -0.023371981 -0.02154471 -0.055588745 0.027577547
000220 4a ce d0 bb ed f1 78 bd d2 50 d2 3c 46 77 06 bd
       -0.006372248 -0.060777593 0.025673304 -0.03282859
000230 2d 70 3e 3d 98 80 02 bc 69 25 3a bd 6d 61 74 bd
       0.046493698 -0.007965229 -0.045445833 -0.059663225
000240 f9 48 3c bc d1 21 c5 3c 24 06 0d 3c a8 cf fd 3c
       -0.011492007 0.024063976 0.008607421 0.030982807
000250 a3 8d 56 bd f4 c0 75 3b e2 a3 03 bd cc cb 90 bc
       -0.05238117 0.0037499042 -0.032138713 -0.017675303
000260 18 2f b3 bc 00 20 27 bd 20 36 9b bc 43 79 11 3d
       -0.021873042 -0.040802002 -0.018946707 0.035516035
000270 d9 a4 2b 3d 13 42 35 3d ca 4b af bc 5a 45 3e 3c
       0.041905258 0.044252466 -0.021398444 0.011613214
000280 c0 57 5e bc fb 3b 86 bb 67 bc 81 bd 99 86 0f 3c
       -0.013570726 -0.0040965057 -0.06334763 0.008760118
000290 dd 4e d3 bc c8 6b 4d bd 23 8c 23 3d 00 0b 9f 3c
       -0.02579444 -0.050151616 0.039928567 0.019414425
0002a0 27 e7 a9 3c 66 9b 85 bd 3d 10 a2 3c 69 73 db 3c
       0.020740105 -0.065237805 0.019783134 0.02678843
0002b0 15 73 28 3d 82 e2 90 3b 00 51 e1 bc 5f 52 df 3b
       0.041125376 0.004421533 -0.027504444 0.0068152393
0002c0 93 c3 29 3c 3b 4e 95 bc 00 ca 30 3d e8 b4 16 3d
       0.01036157 -0.01822578 0.043161392 0.03679362
0002d0 f1 3f 68 bd 67 b4 31 3d a1 ef a9 bb ea 7e 92 bc
       -0.056701604 0.043384936 -0.0051860367 -0.017882783
0002e0 61 48 d1 3c 2c 62 9a 3b 10 2d d3 3c ad a7 5d bd
       0.025547208 0.00471141 0.025778323 -0.054114986
0002f0 39 55 fe 3b 0c 12 6b bb ba 49 5a bd 29 7e 83 bd
       0.007761624 -0.003586891 -0.053292967 -0.064205475
000300 52 b9 07 bd a8 f3 96 3a 93 b2 4c bc 59 46 3e 3d
       -0.03313572 0.0011516707 -0.012493747 0.046453808
000310 73 69 20 bc f1 8b 20 bd c0 a6 e2 ba 21 64 f5 3b
       -0.009790766 -0.03919596 -0.0017292127 0.007488743
000320 4d 97 5e bb a2 82 0b bd cd 04 b1 3c c1 3e 86 bd
       -0.0033964694 -0.034060128 0.021608735 -0.06554938
000330 4a 18 ce bc 54 c9 80 bc e3 64 24 3c b2 17 09 3d
       -0.025158066 -0.015721 0.010033819 0.033469863
000340 f5 0c d5 bc 6e 41 a2 3b 1a e1 09 3d 13 62 2e bd
       -0.026007155 0.0049516475 0.03366194 -0.042574
000350 b2 ec 3e bd 02 05 9e 3a 22 ce 19 bd 69 c1 4d 3d
       -0.04661245 0.0012055936 -0.0375501 0.05023328
000360 ec ea 42 bd 12 8b a5 3c 2b 70 07 bd 66 03 1b bd
       -0.04758732 0.020207915 -0.033065956 -0.037845038
000370 bf 03 47 3d eb 62 40 3c 60 76 61 bd b4 fa 28 3d
       0.048587557 0.011742334 -0.05504453 0.041254714
000380 8e 00 9f 3c f2 5f 5f 3a 22 66 e2 ba e7 c1 29 bd
       0.019409444 0.0008521072 -0.001727287 -0.041444685
000390 4b a4 13 bb 3c 73 d0 ba d9 12 bf 3c 70 93 88 bd
       -0.0022528346 -0.0015903483 0.023324417 -0.066687465
0003a0 cf 96 56 bd 5f cf 1f 3c cc a3 e2 3c 4a 1a a3 bb
       -0.052389916 0.009754031 0.027665995 -0.004977499
0003b0 c0 29 65 3d f4 c5 f3 bc b3 cb a7 3c 76 f8 02 bd
       0.05594802 -0.029757477 0.020482874 -0.031975232
0003c0 93 7f 6e 3c 0c 43 f8 bc 14 dc 6c bd b7 0b 8d 3c
       0.014556783 -0.030305408 -0.05782707 0.0172175
0003d0 49 fd e3 bc a3 ea 5c bd cc 48 f9 3c e0 db 30 bd
       -0.027830737 -0.053934705 0.03043022 -0.04317844
0003e0 b5 46 61 bd ed c0 10 3c 1e f3 21 bd 19 60 bd bc
       -0.054999072 0.00883506 -0.039538495 -0.023117112
0003f0 91 55 b5 bc 73 b6 91 bc 26 6d 29 bc 3d 5a bf bc
       -0.022135528 -0.017787194 -0.010340964 -0.023358459

layers.3.bias f4 [64]
000000 ad 08 24 bd ef c3 27 bc 63 a9 58 bd 89 a0 0f 3d
       -0.040047336 -0.010239585 -0.052895915 0.035065208
000010 25 ca 52 bd af e9 2b bd 05 be f4 3b a3 68 9a 3c
       -0.05146231 -0.041970905 0.007468941 0.018848723
000020 85 1c 17 3c 5d 09 44 3d 7a ef d8 bc 45 8b 58 bc
       0.009223108 0.047860492 -0.026481379 -0.013216798
000030 34 fe 9d 3b f3 4e 4d bd 32 df 0c bd c5 46 39 3d
       0.004821563 -0.05012412 -0.034392543 0.045233507
000040 4a f7 ea 3c 13 17 98 3c 4a a6 03 3d 9e cd 22 3d
       0.02868237 0.01856569 0.032141007 0.039746873
000050 68 6b 39 3d 00 83 12 3b f4 05 18 b9 57 1e 0f bd
       0.045268446 0.0022355914 -0.00014498067 -0.034941044
000060 fe 78 82 bd 41 0f 18 3d d8 3c 16 3d d2 53 f1 bc
       -0.06370734 0.037123922 0.03667912 -0.029458914
000070 ec 08 0f bc 16 ea 84 bd 17 d7 32 bd 15 28 2a bd
       -0.0087301545 -0.06489961 -0.043662157 -0.04154213
000080 2a b0 24 bd 4a 3b 57 3d 18 5e 56 bd b0 a1 42 3d
       -0.040207066 0.052546777 -0.05233583 0.04751748
000090 c4 1d 2b bd a0 11 1e 3b e9 a1 e5 3b 5b 90 7a 3d
       -0.041776434 0.0024119392 0.0070078266 0.061172824
0000a0 10 29 02 3d b1 9a 03 bd 65 fe 65 bd af 4e 98 bc
       0.03177744 -0.032129947 -0.056150813 -0.018592207
0000b0 47 4c 64 3d e0 a4 dd bb ca f7 0a 3d 64 a2 13 bd
       0.055736806 -0.0067640394 0.033927716 -0.03604354
0000c0 5d 26 b0 bc be a6 ff bc 72 22 94 bc 31 d3 d1 3b
       -0.021502668 -0.031207439 -0.018082831 0.00640335
0000d0 8e 72 1a bd b4 e4 c3 3c c5 a5 38 3d 5b 87 29 bd
       -0.037706904 0.023912765 0.045079965 -0.04138885
0000e0 4b ea 5d bd 07 4d 51 3c 53 06 6a bd b5 9c 64 bd
       -0.054178517 0.012774712 -0.057134937 -0.05581351
0000f0 40 ce f5 bb 29 1e 72 bd 30 15 61 bb 2d e9 60 bd
       -0.0075013936 -0.059110794 -0.0034344904 -0.054909874

layers.6.weight f4 [128, 64, 3, 3]
000000 0e 0b 17 bd 45 1e 1f bd 33 c2 22 bd 8c f2 cb bc
       -0.036875777 -0.038847227 -0.039735984 -0.024895929
000010 be 49 af 3c 3e 95 06 3c 7f 6f 23 3c 8f 91 12 3c
       0.021397468 0.008214293 0.009975313 0.008945837
000020 d9 d5 e8 3c 9e 51 81 ba 78 61 23 bb 97 82 13 bd
       0.028422283 -0.0009866243 -0.0024929922 -0.036013212
000030 98 8b 51 bc 7f a5 5d 3d dd 50 43 bc d3 43 85 3c
       -0.012789629 0.054112907 -0.011921135 0.016267693
000040 a2 0b 52 3d cf 21 0b 3b 04 63 c3 bc fa 86 d1 3c
       0.051280625 0.0021229868 -0.023850925 0.025577057
000050 cc c1 12 3c 2a 27 50 bb 80 58 8f 3b 0a c5 2c bd
       0.008957338 -0.0031761625 0.0043745637 -0.0421801
000060 b5 4e 13 bd 1a b0 38 bd 73 cd f7 3c b8 3f 96 bb
       -0.035963733 -0.04508982 0.030249333 -0.0045852326
000070 00 01 d7 bc 55 6c a4 3c 30 9e bb 3c 1b 13 bc 3c
       -0.026245594 0.020071188 0.022902578 0.022958329
000080 71 6e f3 3b 1b c1 97 bc 09 1f 30 bd fd fa 92 bc
       0.007428937 -0.018524697 -0.042998347 -0.017941946
000090 a1 bc d4 3c 13 fd c4 3b 1c 7d 84 bc e2 f2 08 3d
       0.025968852 0.006011614 -0.016172938 0.033434756
0000a0 d9 a6 04 3d d0 57 42 3d 64 6a 17 bc 1a f5 12 3d
       0.03238568 0.047447026 -0.009241674 0.03587828
0000b0 15 e9 48 3d c7 dc 06 bd 42 6f 62 bc af 7e dc bc
       0.04905041 -0.032925393 -0.013820471 -0.026915876
0000c0 59 25 eb 3b d5 78 85 3c c1 4c eb 3c 34 3d cc 3c
       0.007176083 0.016292969 0.028723123 0.024931528
0000d0 53 a2 04 3d c9 b8 d2 3c 3b d0 ab bc 55 40 17 3c
       0.032381367 0.025722878 -0.020973315 0.009231647
0000e0 61 0b 07 3d 68 83 ce bc 3c c9 08 bb 62 55 f7 3a
       0.032969836 -0.025209144 -0.0020871898 0.001887005
0000f0 3f 82 39 bc dd 23 14 3d 3d d9 3b bd 8a 97 e6 bb
       -0.011322557 0.036167014 -0.04586147 -0.007037108
000100 f6 f4 5f bc dd 6a 06 3a c6 6d d8 3c 7a be 8a bc
       -0.013669243 0.0005127618 0.026419532 -0.01693653
000110 ea f0 42 3c a4 55 1d bd db 32 ed bc 8f a9 07 bb
       0.011898259 -0.03841175 -0.028954914 -0.002070043
000120 45 05 6e 3d 97 51 ed 3c 14 95 97 3c 61 d9 61 3d
       0.058110494 0.02896957 0.018503703 0.05513895
000130 36 26 65 3d 4f 48 27 3c 08 94 64 3d 64 9d 1d 3d
       0.055944644 0.010210111 0.055805236 0.038480178
000140 ed 4a 8e 3b 98 a6 14 bd 2e 41 b6 bc 92 ab 7a bb
       0.004342428 -0.03629169 -0.022247877 -0.0038249237
000150 e8 9a 14 bd cf f3 e0 3c a6 91 87 3c 7c 77 82 3c
       -0.036280543 0.027460007 0.016548943 0.015926115
000160 e4 69 14 3d ca f8 09 bd e2 7d 01 3d 92 d2 0f bd
       0.036233798 -0.03368453 0.03161419 -0.035112925
000170 e8 62 b7 bc 04 39 20 3d 0c 19 2b 3d 14 7c 38 3d
       -0.02238603 0.039116874 0.041771933 0.045040205
000180 05 cd 85 3c 01 a8 91 3b b9 7d 82 3c 40 02 54 bd
       0.016333112 0.0044450765 0.01592909 -0.05175996
000190 37 bd 14 3c 1d 83 27 bd e5 a6 a8 bc ed 34 b8 bc
       0.009078315 -0.040896524 -0.020587394 -0.022486174
0001a0 ba b5 f7 bb 39 67 09 3d 84 86 b2 bc b1 ca ae 39
       -0.0075595053 0.033545706 -0.021792658 0.00033338883
0001b0 b2 cb f4 3c 43 3a 8b bc 9a 94 ab 3c 32 e3 23 bd
       0.029882286 -0.016995555 0.020944882 -0.040011592
0001c0 b9 f1 0a 3d 3a f2 92 3c cc a9 5d bc 1f d2 da 3c
       0.03392193 0.017937768 -0.013529252 0.026711522
0001d0 fb e9 a3 3c fa 6a 90 bc b4 19 e4 3c fb 71 9b 3c
       0.020009032 -0.017629135 0.027844287 0.018975249
0001e0 4b db ac 3c 4e cc f7 3c 1f 96 ee bb 10 22 f0 3c
       0.02110066 0.030248787 -0.0072810794 0.029313117
0001f0 c5 c3 12 3d 9a 97 23 3c 4a 4c c3 3c 84 13 f2 3c
       0.03583123 0.009984875 0.023840088 0.029550321
000200 15 f1 19 bd 2a c2 0b bd 5a fb f9 3c 1a f8 de 3c
       -0.03758343 -0.034120716 0.030515362 0.027217913
000210 44 53 e3 bc 95 6d e8 3c 8b 9e eb bc cc 66 41 3b
       -0.027749665 0.028372565 -0.028762123 0.0029510735
000220 15 af 97 bb e8 fc cd 3b 5b 0f 01 bc 98 5b 21 3d
       -0.0046290257 0.0062862523 -0.007877196 0.03939399
000230 9d a2 3d 3b 49 77 f4 bc e1 81 45 3d be 4d 34 3c
       0.0028936036 -0.029842036 0.048219565 0.011004863
000240 b0 66 01 bd 5b d6 9a 3c eb c4 a1 3c 8e 10 11 bd
       -0.03159207 0.01890104 0.019747218 -0.03541618
000250 f0 01 bc bb d3 12 1c bd 24 16 18 3d 2f 8c 16 bd
       -0.0057375357 -0.03810389 0.03713049 -0.036754783
000260 af 33 8d 3c 06 58 cb bc 88 20 a0 bc c8 b9 12 bd
       0.017236559 -0.024822246 -0.019546762 -0.035821706
000270 b9 01 44 3c ec 89 8a bc 41 40 87 3b 5a 64 95 3b
       0.011963301 -0.01691147 0.0041275327 0.004559082
000280 9d 9a 28 bd 73 4b b2 bc f5 40 80 bc f0 96 44 bd
       -0.041163076 -0.021764493 -0.015655974 -0.047995508
000290 a6 fe 32 bd 64 e8 d4 3c d0 bb ce 3c c1 51 24 3c
       -0.043699883 0.025989719 0.02523604 0.010029257
0002a0 b1 d9 69 3c a4 04 d8 bc f0 48 3f bd 64 48 0f 3d
       0.014273093 -0.0263694 -0.046700418 0.034981146
0002b0 6f f4 09 bd e6 5b 9e 3c b2 97 52 3c 3d c4 3e bd
       -0.033680376 0.01933093 0.01285355 -0.046573866
0002c0 e1 ff b1 3c 63 b1 37 bd a2 c0 bd bc ad 73 42 3c
       0.021728458 -0.044846904 -0.023163144 0.0118684
0002d0 8c 74 29 bd 9b 55 1c 3d ef ed 38 bd 1f cb b6 bc
       -0.041370913 0.038167577 -0.045148786 -0.022313653
0002e0 30 23 3f 3c 39 48 08 bd b8 84 2a bd 40 c6 22 bd
       0.011666104 -0.033272002 -0.041630477 -0.039739847
0002f0 ef 9d 1e bd 52 9e ed bb e5 51 cd bc 7f c3 de 3c
       -0.038724836 -0.0072515393 -0.025063464 0.02719283
000300 d6 5b a2 3b d1 85 dd 3c 39 be 30 3c 1a 80 d0 3b
       0.0049547954 0.027041348 0.01078754 0.006362927
000310 90 08 95 3b db ff 22 3d 8e 4c 7e bc 0b 1d 4d 3c
       0.00454814 0.039794784 -0.015521182 0.012519131
000320 a4 b4 ab 3a 8f 02 a8 bc a9 ba 15 3b e5 61 26 3d
       0.00131001 -0.020509033 0.0022846854 0.040620703
000330 42 07 80 bc 4c 3a 6a 3d f8 be a6 3c 83 52 f8 3c
       -0.01562846 0.057184502 0.020354733 0.030312782
000340 c9 d0 e6 3b 95 26 18 bc 4e 0d b3 bc c9 48 f6 3c
       0.007043932 -0.009286542 -0.02185693 0.030064004
000350 4b 58 0a bd 8b 06 13 bd 37 f3 20 3c 03 d3 10 bd
       -0.03377561 -0.03589491 0.009823612 -0.035357486
000360 bb 6b 98 3c ae b8 0b bc d8 8e 35 3a 81 92 04 bd
       0.018606057 -0.008527918 0.00069258874 -0.03236628
000370 eb 05 61 bc a1 f9 c4 3b bc a1 db 3c 33 fe 9d bc
       -0.013734321 0.0060112034 0.02681052 -0.01928625
000380 81 79 90 3c a8 1f 7b bc 7e 56 ad bc fc 87 8d 3c
       0.017636063 -0.015327372 -0.021159407 0.017276756
000390 1b d6 30 bc 08 10 e1 bc f7 bd 93 bc dd 5c 33 bc
       -0.010793234 -0.027473465 -0.018034918 -0.010947433
0003a0 ea ce 6a 3b e0 3b 2a 3d df 63 18 3d d8 0c 3e 3d
       0.0035828897 0.041561007 0.03720462 0.046398968
0003b0 a1 e5 d9 3c 9e 40 5b ba b0 e1 20 3c 76 d1 84 3a
       0.026598753 -0.0008363816 0.009819433 0.0010133225
0003c0 38 fd 1c 3c 60 3e 8c 3c 47 02 d2 3c 0a 00 07 bd
       0.009581856 0.017119586 0.025635852 -0.03295902
0003d0 15 c3 9e 3c 36 bd 18 3b 09 a6 e4 bc ab 41 0b bc
       0.019380132 0.0023306138 -0.027911203 -0.008499543
0003e0 1d e0 c7 3c db ba a2 3b 2f 57 fd 3c 30 43 c6 3b
       0.024398858 0.0049661226 0.030925361 0.00605049
0003f0 5f 1b a2 bc 28 2d 7a bd 86 4d 78 bd f8 ae 6c bd
       -0.019788442 -0.06107822 -0.060620807 -0.05778405

layers.6.bias f4 [128]
000000 2e cf cb bc bd 0f e6 3c 25 38 1e 3d ab 97 16 bc
       -0.024879064 0.028083676 0.038627762 -0.009191434
000010 30 4f 74 3c 7e 14 e6 bc 8c 43 9c 3c 60 ad d5 3c
       0.014911458 -0.028085943 0.019075178 0.026083648
000020 ce 77 d5 bb 06 a7 0d 3d 53 ba c5 3c bf c9 40 bd
       -0.006514526 0.034583114 0.024136698 -0.0470674
000030 aa 15 a6 bb 5b 58 56 bb 74 f0 01 bd a5 b4 38 bb
       -0.0050685005 -0.0032706473 -0.031723455 -0.0028183844
000040 4b 48 c7 bb 61 2b 0e bc fb 44 1f bd 82 15 93 bc
       -0.006081616 -0.0086773345 -0.038884144 -0.017954592
000050 54 c9 bf 3c 0a e3 cd ba 0d 28 67 3c 26 c1 f4 bc
       0.02341143 -0.0015707922 0.01410867 -0.029877257
000060 4c 65 15 3d 60 64 80 bc ca 5f 39 3c b1 6d 1a bd
       0.036473557 -0.015672863 0.011314342 -0.037702266
000070 fc 1f 8b bc bf d0 34 bd f3 49 19 3b 7e 87 1b bc
       -0.016983025 -0.04414439 0.0023390024 -0.009492753
000080 ed 74 0a bb 79 56 a0 3c 0c 18 99 3a a4 ca 1e bd
       -0.0021126822 0.019572483 0.001168014 -0.038767472
000090 21 96 48 3b ac ae dc bc cc dc b2 3c d5 58 68 bc
       0.0030607062 -0.026938759 0.0218338 -0.014181335
0000a0 a1 ef 27 3d 4a ca 0d 3d b0 43 0c 3d 53 11 9a 3c
       0.041000012 0.034616746 0.03424424 0.018807089
0000b0 a6 df 83 3c a6 91 2e 3c 0e 71 1f bc fd 59 30 bd
       0.016097855 0.0106548425 -0.009731544 -0.04305457
0000c0 99 2e 12 3b 0b 65 0a bd 27 11 5c 3c 92 d5 a2 3c
       0.0022305606 -0.03378777 0.013431824 0.019877229
0000d0 26 12 1e bd 91 cb 43 bd 94 bd a2 3a 61 fc 52 3c
       -0.038591526 -0.047801558 0.0012416118 0.012877555
0000e0 61 f1 51 bd 36 e0 0a bd 53 25 11 3c 20 90 2f bd
       -0.051255587 -0.03390523 0.008858996 -0.042862058
0000f0 31 4c 82 3b 0e 95 e4 3c 41 18 c8 bb 09 78 52 bd
       0.003976368 0.027903106 -0.006106407 -0.051384006
000100 c0 be 38 bd 3d 97 a5 bb 50 43 0e bd 25 53 ee bc
       -0.04510379 -0.0050534294 -0.034732163 -0.02909238
000110 91 09 16 bd 57 08 1d 3c 90 c0 27 3d 73 50 ae 3c
       -0.036630217 0.009584508 0.040955126 0.021278596
000120 1b c9 40 bd 8f 03 11 bd 5f 03 d5 3a 51 6d fb ba
       -0.04706679 -0.035403784 0.0016251615 -0.0019182359
000130 c6 04 ce bc 93 ce d6 bc a6 8c 90 3c c0 64 ce bc
       -0.02514876 -0.02622155 0.017645191 -0.025194526
000140 88 7f ef 3b 8f 61 ee 3c 0d eb c6 3b 4c 8e 2f bd
       0.007308904 0.029099254 0.0060705007 -0.042860314
000150 11 6f 0d 3d ac 45 9b 3b 3d 20 15 3d 4a 1a d3 bc
       0.03452975 0.00473853 0.036407698 -0.025769372
000160 7a 02 d5 3c 02 3c 8d bc fd 64 29 3c 8f a7 6d bc
       0.026002157 -0.017240528 0.010339019 -0.014505281
000170 ac 00 d2 bb 26 ff e2 3c 82 2d 14 3c 23 4c 1d bd
       -0.0064087715 0.027709555 0.009044053 -0.038402688
000180 88 15 3b 3c 4c 84 d2 3c d2 82 c0 3c 49 70 37 bd
       0.011418708 0.02569785 0.02349988 -0.044784818
000190 2d 0d 67 bc a5 dc 39 bd 41 bb c1 3b 52 fc 3a bd
       -0.014102262 -0.04537644 0.005912215 -0.045650788
0001a0 15 5b 93 bc 22 db b7 3b 88 bf 09 bd fb e3 a9 bc
       -0.017987767 0.0056108395 -0.033629924 -0.020738592
0001b0 bc cd 49 bd 6a cf 57 bb bf 37 ce bc 90 4a 26 bd
       -0.04926847 -0.0032930025 -0.025173066 -0.040598452
0001c0 bd f9 39 bd 7d 84 30 bc b9 5c 84 bc 00 41 c3 bc
       -0.045404185 -0.010773775 -0.016157495 -0.023834705
0001d0 38 89 71 bb 8d 3a 8f bb 31 21 d6 3c 2d 22 f1 bc
       -0.003685547 -0.0043709935 0.026138874 -0.029435242
0001e0 6b d3 2d bd 16 a0 56 bc cf a9 93 bc 74 29 f3 3c
       -0.042437952 -0.013099691 -0.018025307 0.029682852
0001f0 35 97 a1 3c 5a b5 2b 3c 60 49 9a 3c 7c 00 90 bc
       0.019725421 0.010480249 0.018833816 -0.017578356

layers.10.weight f4 [2, 32768]
000000 d4 a7 34 bc ad 5d e3 bc 2d 33 a3 bc e6 05 8e bc
       -0.0110263415 -0.027754629 -0.019921863 -0.017336797
000010 8e c5 8d 3c 34 b4 00 3c 1e d1 9c 3b ae 9f ee bb
       0.017306115 0.007855464 0.004785671 -0.007282219
000020 f5 54 bc b8 56 c1 a1 3b 76 f4 85 3c 4f 94 8e 3c
       -8.980363e-05 0.0049363775 0.01635192 0.017404703
000030 a1 69 52 bc 26 9a 5e bc 37 58 b5 bc 28 e7 05 bb
       -0.012842567 -0.013586557 -0.02213679 -0.002043197
000040 00 69 0f bc 82 68 bb bc 9a 20 fc bc e7 21 8d bc
       -0.008753061 -0.022876982 -0.030777264 -0.01722808
000050 dd 16 ae 3c dc a4 82 3a de 54 29 bc 8f 29 af bb
       0.021251136 0.0009967345 -0.010335175 -0.0053455303
000060 49 12 1c bc cc f0 cc bb 9f 86 c2 3b de 07 d9 3c
       -0.009525844 -0.006254291 0.0059364582 0.02649301
000070 d9 5d b6 3a cb 1f 96 bc fc 53 46 bc a5 0b 16 bc
       0.0013913467 -0.018325707 -0.012104984 -0.00915805
000080 55 59 b4 bb c0 cd 4f bc ca 80 81 bc 7b b7 5e bb
       -0.0055038133 -0.012683332 -0.015808482 -0.0033983875
000090 28 75 02 3d 6a 68 e0 bb b6 0f 1b 3c 54 8a 86 3a
       0.03185001 -0.0068483846 0.009464195 0.0010264614
0000a0 bd ae 0c 3c 47 c1 72 bb 02 1a d7 ba 3b 14 c4 3c
       0.008586583 -0.0037041472 -0.0016410949 0.023935428
0000b0 45 ac 8b 3b c8 fc 8a bc 8b 9a 38 bc 86 70 1c 3b
       0.0042624795 -0.016966239 -0.011267315 0.002387078
0000c0 6d 83 3e bb d1 eb 95 bb 4b 28 3c bb 0b d0 48 3c
       -0.0029070035 -0.0045752306 -0.002871054 0.012256633
0000d0 1f 04 c1 3c 8f 68 7e b9 9b bc 61 3c 57 ea b5 3c
       0.023561535 -0.00024262279 0.013777877 0.022206469
0000e0 af c3 b3 3c 81 08 9d 3b 60 f1 a9 3b 83 f6 88 3c
       0.021943895 0.0047922735 0.005186245 0.016719108
0000f0 3e 0a 07 3c 5a 5f ff bb d0 fc 06 bc d4 91 2a bc
       0.008242188 -0.007793349 -0.008238986 -0.010410745
000100 71 c0 5e 3a 18 e7 1b 3c fe 59 e2 ba f6 8e 90 3b
       0.0008497304 0.009515546 -0.0017269251 0.0044115735
000110 66 85 05 3c 1e f4 e0 38 2a ec 4b 3c ad 3b 13 3d
       0.00814948 0.00010726623 0.012446443 0.035945583
000120 36 8a 0f 3d 00 93 8f 3c 2d b5 bd 3b 32 f2 58 3b
       0.035043918 0.01752615 0.00578942 0.0033103344
000130 f2 05 ce bb 0f 8f d6 bb 4e 92 40 3c b7 d6 b5 3b
       -0.00628733 -0.0065478156 0.011753632 0.0055492776
000140 31 10 b9 bb 33 ef ce ba a2 40 32 bc cf 11 92 3b
       -0.005647682 -0.001578784 -0.0108796675 0.0044576894
000150 d6 8d 95 3c a4 70 19 3c ac f1 71 3c 75 ba fe 3c
       0.01825611 0.0093652345 0.014767092 0.031094769
000160 a4 47 b5 3c 6c 13 6d 3c 1e 4f cb 3b fd c8 84 3c
       0.022128887 0.014469963 0.0062045 0.01620912
000170 7f 01 86 3c 58 3c 3f bc a4 e9 26 ba 31 1f fe 3b
       0.016358135 -0.011672102 -0.00063672126 0.007755183
000180 dc e7 10 bc 8d 20 fd bc be 7e 83 bc 4b 48 af 3b
       -0.008844342 -0.03089931 -0.016051646 0.005349194
000190 ed ff 31 bc 82 15 d2 3a e3 9f 21 3c f8 1d 24 3c
       -0.01086424 0.0016028138 0.00986478 0.010016911
0001a0 de 9f bb 3c 66 9f 0a 3c d6 3c 6d b9 35 d7 f2 3b
       0.022903379 0.008460855 -0.00022624744 0.0074109086
0001b0 48 23 15 3c 56 d6 ab bc 74 f8 aa bc 90 51 be bb
       0.00910265 -0.020976227 -0.020870425 -0.005808063
0001c0 a7 5e 04 bc 5e a8 d2 bc 4c e7 99 bc 11 5f 8c 3b
       -0.0080792075 -0.02571505 -0.018787049 0.0042837937
0001d0 ee 10 e9 bb 0a 58 b4 bb bc 0c e6 3b ef 79 6a ba
       -0.007112614 -0.005503659 0.007020561 -0.0008944561
0001e0 e0 35 b4 ba c2 e8 21 3c b0 96 f6 bb 98 72 ec ba
       -0.0013748966 0.009882154 -0.0075252876 -0.0018039523
0001f0 d6 0b 5e 3c 93 53 44 bc 74 0c 9a bc 05 b1 91 3b
       0.013552627 -0.011982816 -0.018804766 0.004446151
000200 8d ff 33 3c 3b e5 21 3c dc ed e8 3c 02 91 74 3c
       0.010986221 0.009881313 0.028433733 0.014927151
000210 0e c4 09 3c 16 4e 9c b9 75 24 76 3c 24 72 29 3c
       0.0084085595 -0.00029812817 0.0150233405 0.010342155
000220 a2 64 f9 3b 3f 85 09 3c d7 df 0d bc 39 96 17 3b
       0.0076108733 0.008393585 -0.008659325 0.0023130311
000230 00 b9 6f 3c 4f 71 cf 3c f5 49 40 3c 27 34 ad 3c
       0.01463151 0.025322584 0.011736383 0.021143032
000240 aa 5f 02 3c 9a 76 03 3d dd 3f da 3c 0f 72 df 3b
       0.007957378 0.03209553 0.02664178 0.0068190168
000250 bc f6 85 3c 91 af 8b 3c a9 ae b5 3c 55 de 16 3d
       0.016353004 0.01705149 0.022178011 0.036833126
000260 17 d1 06 3d 9e 9c 87 3c 98 43 c3 3b c6 21 41 3c
       0.032914247 0.016554173 0.0059589855 0.011787837
000270 0a fe 21 3c 22 b2 e5 3c 73 ed a3 3c 2b f2 25 3c
       0.009887228 0.028039042 0.020010686 0.010128538
000280 36 c7 52 bb 1a d1 ac 3c 50 6a eb 3c 37 43 02 bc
       -0.0032162196 0.021095801 0.028737217 -0.007950596
000290 a4 c3 1b 3c 3b ee 51 3c 83 80 b1 3c 65 ae 3c 3d
       0.009507094 0.012813146 0.021667724 0.046064753
0002a0 bb 3b 36 3d 13 e6 c2 3c d2 0c 00 3b bb c6 52 3a
       0.044490557 0.023791349 0.0019538892 0.00080404774
0002b0 31 fd 3c 39 20 11 b5 3c 32 49 0a 3c f4 9c 45 bc
       0.00018023398 0.022102892 0.008440303 -0.012061346
0002c0 b0 61 d8 3b ee 36 eb 3b be 62 ab 3b 00 ce bd bc
       0.006603442 0.007178179 0.005230277 -0.023169518
0002d0 fe 50 40 bc 07 c4 e4 3b 3c 3f 9d 3c a6 1a ea 3c
       -0.01173806 0.006981376 0.019195192 0.02857716
0002e0 9f 89 ff 3c 43 08 0d 3d 5d 0f 17 ba fd 83 69 bc
       0.031193553 0.034431707 -0.0005762482 -0.01425266
0002f0 75 cb d9 bc c1 bf a8 bb 4a 6a 0d 3c 88 bd af bb
       -0.026586274 -0.005149812 0.008631298 -0.00536317
000300 a8 e2 92 bb 10 2b db 37 16 32 d0 bb 40 87 fc bb
       -0.004482586 2.6126887e-05 -0.006353627 -0.0077065527
000310 d6 f1 78 bc b4 98 e2 3b 8e 14 a7 3c 4a 6f 34 3c
       -0.015194377 0.0069151763 0.020395543 0.0110128615
000320 ac 70 e5 3c a0 43 1d 3d 07 f5 32 3c 33 a1 98 bc
       0.028007828 0.03839457 0.010922677 -0.018631553
000330 a2 ca 4e bc a5 be 82 bb cc 06 0c 3c 54 b0 38 3b
       -0.012621554 -0.0039900118 0.008546542 0.0028181272
000340 db fa f0 bb 5a 61 30 bc 5e 17 0f bb 01 bf 0f bc
       -0.007354123 -0.010765398 -0.0021833996 -0.008773566
000350 cc fe 89 bc 6e c6 3c bc 84 f2 cb 3b 66 fd 62 b9
       -0.01684513 -0.011521919 0.0062239785 -0.00021647438
000360 de 5a b8 3c 75 bd 92 3c 1c c6 17 bc 21 d4 1c bc
       0.022504266 0.017912606 -0.009263542 -0.00957206
000370 be 5e 0a 3c 0a 02 22 3c 42 83 53 bc 9f 98 82 bc
       0.00844544 0.009888181 -0.012909712 -0.015941916
000380 c9 08 0a 3c 81 55 9b 39 5f b6 d5 3b af e3 b7 bb
       0.008424946 0.0002962761 0.0065219845 -0.005611859
000390 cb 11 1f 3b d0 3d 55 bc c3 d1 66 3b 05 67 41 3c
       0.002427208 -0.0130152255 0.0035220243 0.011804347
0003a0 d0 8d bb 3c 39 86 e8 3a 2c e5 54 bb fd 60 dc 3b
       0.02289477 0.0017740197 -0.003248523 0.006725429
0003b0 4b 78 e9 bb 92 4d 63 3c 7e 90 29 3c 95 81 0e 3c
       -0.0071249357 0.013873475 0.010349391 0.008697887
0003c0 1d 22 a6 3b df a4 7a ba 18 b2 94 bb 44 1a 58 bb
       0.0050699846 -0.0009561311 -0.004537832 -0.003297464
0003d0 4c ed 9b ba 80 14 9c 3a d3 47 a3 39 37 48 05 3b
       -0.0011896282 0.0011907965 0.00031143296 0.0020337233
0003e0 cc e2 f0 3b fb 69 76 3b 63 f7 1b bb 43 6c 0b bb
       0.007351255 0.003759979 -0.0023798577 -0.0021274246
0003f0 38 06 6f bb 41 0f 23 3b 89 9d a0 3b 77 ea f1 ba
       -0.0036472213 0.0024880918 0.004901592 -0.0018456717

layers.10.bias f4 [2]
000000 73 e6 3f bb 30 cb d6 3b
       -0.0029281646 0.0065549836
