models/logistic_regression.pth (torch, 394912 bytes, 2 tensors)

model.1.weight f4 [2, 49152]
-0.005604857 -0.009289653 -0.0111388005 -0.00637879 -0.005741905 0.0021488662 -0.006573359 -0.0048945467
-0.008719531 -0.004212595 -0.007634301 -0.011718078 -0.014710427 -0.013508375 -0.008657661 -0.0096289255
-0.008522709 -0.0031903358 -0.009206932 -0.0067994795 -0.007663919 -0.0035986798 -0.009516258 0.0020158894
0.0047766557 -0.0020863349 0.0053971335 0.0065937405 0.0020169907 0.0046008537 0.0028931098 -0.004531959
-0.0035524045 -0.001997745 -8.291798e-05 -0.00940209 -0.007624764 0.0016428259 0.0064042676 -0.00038213705
-0.0024692267 -0.010542802 -0.008091435 -0.010816291 -0.003551787 8.6927656e-05 0.0021829514 -0.006569183
-0.006434667 0.0032724543 0.007838812 0.0026381477 0.0007542959 0.007544445 0.0030894673 -0.00094383844
-0.004851562 0.0030383205 0.00426509 -0.005492783 0.0013497928 -0.0023401158 -0.008264282 -0.0014382552
-0.002847816 -0.0015958922 0.0024304553 0.0017696426 -0.003837269 -0.0037395912 0.00023551537 -0.00864708
-0.0052062836 -0.0010453939 -0.0059975423 -0.002032668 0.007923895 0.011860392 0.006393905 -0.0021311045
-0.0074118306 0.0045223767 0.0056223427 -0.0053688465 -0.007586795 0.0025010912 0.006442316 0.013511815
0.008896379 0.007549039 0.002077781 0.00014538846 0.004347248 0.0039211614 0.0024413855 0.0050749127
0.002778732 0.00347265 -0.0012697825 -0.004501784 0.0011430157 -0.0016761682 -0.0019692606 -0.0015293012
-0.0016168514 -0.0035775155 -0.005050131 0.00460803 0.007249192 0.0074786246 -0.0017739643 -0.008233031
-0.009585702 -0.016764106 -0.010818468 -0.009809049 -0.011041582 -0.013051804 -0.009477072 -0.005033596
-0.0054550027 -0.008136006 0.00025384343 -0.0077214264 -0.0044226437 0.0017511633 0.0022506414 -0.0031825386
-0.0075580217 -0.009707753 -0.006490949 -0.012750451 -0.000740658 0.0007050547 0.0019860207 -0.0068139364
-0.0031896143 -0.002504643 -0.007294366 -0.0127335 -0.015614522 -0.0045996327 -0.010192901 -0.010057851
-0.008497062 -0.00063113106 -0.003995068 -0.001140054 -0.0068523358 -0.0016665265 -0.0030089165 0.0033111095
0.006385104 0.006350366 0.0076477076 0.006266338 -0.0004994576 0.003382669 0.0076842355 0.003942831
0.005453315 0.0074502677 0.0045552794 -0.0012616307 -0.006072841 0.0060440963 0.0024269605 0.0034122951
-0.0039648083 -0.006751941 -0.007011248 0.002221585 0.00836217 0.00892182 0.009896381 -0.00019704615
-0.0021113777 0.0033369532 0.011925683 0.013333375 0.0074060606 0.01068419 0.006785192 0.0048136762
-0.0015900383 0.001602008 0.0021926558 0.0034715768 -0.0020075412 -0.0019127792 -3.796535e-05 -0.0034504884
-0.0016484888 0.0065943417 0.0074530654 0.0033562041 0.00093974447 -0.00047281425 -0.0032505787 -0.006164216
0.0011573303 -0.0012587454 -0.00038795001 0.0027345605 0.011149067 0.011085856 0.014961927 0.0012879375
0.0019550347 0.007561763 0.005219154 0.0029864805 0.00076172943 0.00835951 0.00984751 0.015179945
0.012344476 0.015751274 0.007340935 0.008012945 0.015357183 0.016031517 0.00954758 0.0074416413
0.0063113063 0.011829149 -0.0023759885 -0.006540476 -0.0011085398 0.0014150639 0.006530898 0.0008797242
-0.0018961637 -0.0037812926 -0.0045804675 0.0050282483 0.003843285 0.0030907823 0.0012022429 -0.007201091
-0.0095789 -0.015821705 -0.012814492 -0.015613626 -0.01497706 -0.009083401 -0.005176969 -0.0032215067
-0.013723134 0.00022807207 -0.0036403688 -0.0044384724 -0.0058411583 0.0008697138 0.002637775 -0.002618169
00000000: f3a8 b7bb a133 18bc 847f 36bc 2b05 d1bb
00000010: 9726 bcbb fed3 0c3b 5565 d7bb 6f62 a0bb
00000020: 5ddc 0ebc cf09 8abb 2929 fabb 2efd 3fbc
00000030: 0104 71bc 3b52 5dbc ddd8 0dbc a4c2 1dbc
00000040: d5a2 0bbc f414 51bb acd8 16bc 2bce debb
00000050: 9d21 fbbb d4d7 6bbb 14ea 1bbc 031d 043b
00000060: 7e85 9c3b e4ba 08bb 70da b03b 4e10 d83b
00000070: 7d2f 043b c2c2 963b 549a 3d3b d480 94bb
00000080: 75cf 68bb 99ec 02bb 40e4 adb8 390b 1abc
00000090: 28d9 f9bb 1754 d73a e4da d13b 9159 c8b9
000000a0: c0d2 21bb b7bb 2cbc f091 04bc d036 31bc
000000b0: 19c5 68bb ee4c b638 d90f 0f3b 4d42 d7bb
000000c0: e6d9 d2bb ac76 563b 5c6e 003c c6e4 2c3b
000000d0: f1bb 453a 6437 f73b a978 4a3b ed6b 77ba
000000e0: daf9 9ebb 8f1e 473b 2bc2 8b3b cefc b3bb
000000f0: 88eb b03a a15c 19bb e966 07bc d683 bcba
00000100: 6da2 3abb 422d d1ba 4648 1f3b 5af3 e73a
00000110: b17a 7bbb ee13 75bb adf4 7639 7bac 0dbc
00000120: 7999 aabb 9905 89ba 0887 c4bb 8336 05bb
00000130: 39d3 013c 1752 423c f683 d13b 00aa 0bbb
00000140: f1de f2bb 7230 943b a13b b83b 26ed afbb
00000150: a69a f8bb 59e9 233b 101a d33b a960 5d3c
00000160: 1ec2 113c ee5d f73b 612b 083b 6b73 1839
00000170: 5c73 8e3b 167d 803b a7ff 1f3b 744b a63b
00000180: 631b 363b 6695 633b d56e a6ba b483 93bb
00000190: 3ed1 953a dfb2 dbba b60e 01bb d572 c8ba
000001a0: 88ec d3ba c074 6abb 927b a5bb f5fe 963b
000001b0: a18a ed3b 400f f53b 5d84 e8ba d6e3 06bc
000001c0: 590d 1dbc e154 89bc f23f 31bc 22b6 20bc
000001d0: c0e7 34bc 3cd7 55bc b945 1bbc ddf0 a4bb
000001e0: e1bf b2bb e24c 05bc 4a16 8539 0504 fdbb
000001f0: d3eb 90bb 4a87 e53a 7f7f 133b 2392 50bb
00000200: 48a9 f7bb 440d 1fbc 07b2 d4bb 45e7 50bc
00000210: b828 42ba 6cd3 383a e627 023b 7147 dfbb
00000220: d908 51bb f024 24bb 9405 efbb 2ca0 50bc
00000230: 0dd4 7fbc 84b8 96bb 2000 27bc afc9 24bc
00000240: 4337 0bbc 7d72 25ba 0fe9 82bb dd6d 95ba
00000250: 8f89 e0bb 5a6f daba 3e31 45bb 33ff 583b
00000260: 223a d13b bb16 d03b 9f99 fa3b da55 cd3b
00000270: 08ee 02ba c5af 5d3b 0acc fb3b dd32 813b
00000280: b9b1 b23b 6021 f43b 7444 953b 4d5d a5ba
00000290: affe c6bb 8e0d c63b a40d 1f3b d0a0 5f3b
000002a0: 39eb 81bb 633f ddbb 9cbe e5bb 0398 113b
000002b0: 7c01 093c d32c 123c 6e24 223c 2c9e 4eb9
000002c0: 0a5f 0abb c9b0 5a3b f163 433c 3a74 5a3c
000002d0: 8aae f23b be0c 2f3c 5156 de3b 0bbc 9d3b
000002e0: d568 d0ba 78fa d13a a9b2 0f3b 6583 633b
000002f0: f490 03bb 38b6 faba fc3c 1fb8 9721 62bb
00000300: 1b12 d8ba 5915 d83b d838 f43b c3f3 5b3b
00000310: 2f59 763a 0ee4 f7b9 a907 55bb 31fd c9bb
00000320: 90b1 973a 7dfc a4ba c565 cbb9 5036 333b
00000330: 94aa 363c 73a1 353c df22 753c 03d0 a83a
00000340: 0a20 003b aac8 f73b 7005 ab3b d4b8 433b
00000350: ccae 473a 54f6 083c 7357 213c 4eb5 783c
00000360: 7c40 4a3c d108 813c 3a8c f03b ba48 033c
00000370: b29c 7b3c 8754 833c 746d 1c3c 03d9 f33b
00000380: 13cf ce3b 0ccf 413c 79b6 1bbb 7d51 d6bb
00000390: 6c4c 91ba aa79 b93a 2501 d63b 4b9d 663a
000003a0: b288 f8ba 90cf 77bb bf17 96bb 01c4 a43b
000003b0: 9fdf 7b3b b98e 4a3b 9494 9d3a 21f7 ebbb
000003c0: d2f0 1cbc 859c 81bc e0f3 51bc 4bd0 7fbc
000003d0: 5862 75bc 8cd2 14bc 90a3 a9bb ea1f 53bb
000003e0: ffd6 60bc a126 6f39 4193 6ebb 9b70 91bb
000003f0: 3067 bfbb 81fd 633a 85de 2c3b 9695 2bbb

model.1.bias f4 [2]
0.019735906 -0.023328926
00000000: 32ad a13c 4e1c bfbc
